pytorch_model/best_weather_model.pth (torch, 627658 bytes, 21 tensors)

embeddings.wind_dir.weight f4 [8, 8]
0	0xbeffac4c	-0.4993614
1	0x3fbcc5fc	1.474792
2	0xbf49d847	-0.7884564
3	0xbe31dd1a	-0.173695
4	0x3e8b3ef2	0.2719646
5	0xbef87149	-0.4852393
6	0xbfbf8431	-1.4962217
7	0xbf19ce1d	-0.6008013
8	0x3f0d99b6	0.5531267
9	0x3f8fcf5a	1.1235154
10	0x401e2521	2.4710162
11	0xbfa1844d	-1.26185
12	0xbf32b9a8	-0.6981454
13	0x3fa05fa3	1.2529186
14	0xbf98e7c0	-1.1945724
15	0x3f320f82	0.69554913
16	0xbff9eee2	-1.9526026
17	0x3f7d76b5	0.9900926
18	0xbeb1446c	-0.34622514
19	0x3e105202	0.14093783
20	0x3f72248c	0.94587016
21	0x3f063cf1	0.5243674
22	0xbf226e3f	-0.6344947
23	0xbef2eda4	-0.4744693
24	0xbf22607b	-0.6342847
25	0x3f7f14fc	0.99641395
26	0xbee8840b	-0.4541324
27	0xbfb3de7c	-1.4052272
28	0xbfad31a3	-1.3530773
29	0xbf66afd9	-0.9011207
30	0x3dd4a3e1	0.1038282
31	0x3e85533a	0.2604006
32	0xbfa1a7df	-1.2629355
33	0x3f6866b8	0.90781736
34	0x401bc46b	2.4338634
35	0xbf0e22ad	-0.5552166
36	0xbeece608	-0.4626925
37	0x3f0b28eb	0.5435931
38	0x3eebef59	0.46081045
39	0x3f934ede	1.1508443
40	0x3f7a9bb7	0.9789385
41	0x3f80da30	1.0066586
42	0x3f0383a6	0.51372755
43	0x3cc5fa84	0.024167307
44	0xbea063f8	-0.3132627
45	0xbf33df41	-0.70262533
46	0x3de2b64e	0.11069928
47	0xbf887716	-1.0661342
48	0xbd88b76e	-0.066756114
49	0x3f774555	0.9659017
50	0xbff3be66	-1.904248
51	0xbf177640	-0.5916481
52	0xbff1d2d1	-1.8892461
53	0xbf05ab4e	-0.52214515
54	0x4014863a	2.3206925
55	0x3f82a7a8	1.0207415
56	0xbeb5d8e3	-0.35517034
57	0xbc54eb0f	-0.012995495
58	0xbe6b47a6	-0.2297655
59	0x3e61ca1a	0.22049752
60	0x3de94a0b	0.11391076
61	0x3f7ed25e	0.99539745
62	0xbed7803f	-0.42090032
63	0x3d27d77a	0.04097698

embeddings.uv.weight f4 [5, 4]
0	0x3eeabae0	0.458457
1	0x4001d922	2.0288777
2	0x3ef48cdf	0.47763726
3	0xbfd4d5c2	-1.6627734
4	0x3f0fb1e8	0.5613084
5	0x3eed60c7	0.46362898
6	0xbf7b2331	-0.9810057
7	0xbe85ff8c	-0.2617153
8	0xc009a2a6	-2.1505523
9	0x3fe08f5f	1.7543753
10	0xbe9106b7	-0.28325436
11	0xbf91bb40	-1.1385269
12	0xbe4e8e0f	-0.20171379
13	0xbf8716fb	-1.0553888
14	0x3efa41dd	0.48878375
15	0xbe32eea8	-0.17473853
16	0xbfcad9f0	-1.5847759
17	0x3f27adfb	0.6549985
18	0xbf99c4db	-1.20132
19	0xbee7a1b3	-0.45240554

embeddings.wind_power.weight f4 [7, 4]
0	0x3e5e290c	0.21695346
1	0xbeb23ee2	-0.348136
2	0xbf2cc5ba	-0.67489207
3	0x3f799640	0.9749489
4	0x3dfcb0b6	0.123383924
5	0xbe9e914f	-0.30970237
6	0x3f727453	0.94708747
7	0x3f105137	0.56373924
8	0x3f0dbaa2	0.55362904
9	0x3f4d94d7	0.80305237
10	0x3ee67b62	0.4501601
11	0x3f391875	0.72302943
12	0x3d821706	0.063520476
13	0xbd93ca9d	-0.0721638
14	0xbf9adab8	-1.2097998
15	0xbd204606	-0.03912928
16	0x3f589946	0.84608877
17	0x3e91491c	0.2837609
18	0x3fa25d6f	1.2684764
19	0xbffd00de	-1.976589
20	0xbe5343e6	-0.2063137
21	0xbf20245b	-0.62555474
22	0x3f83967e	1.0280302
23	0x3ee1d710	0.44109392
24	0xbf4a05bc	-0.78915
25	0xbe91ee60	-0.28502178
26	0x3e04bf73	0.12963657
27	0xbf10e3b9	-0.5659748

feature_fusion.0.weight f4 [128, 22]
0	0xbe37f852	-0.1796582
1	0x3c5e1f15	0.013557215
2	0x3d881378	0.06644338
3	0x3e140478	0.1445483
4	0x3e716415	0.23573335
5	0xbd03b929	-0.032159004
6	0x3ddd1fbb	0.10797068
7	0x3b478384	0.003044338
8	0x3e150975	0.14554389
9	0xbdf1cd18	-0.11806697
10	0x3e438d79	0.19096936
11	0x3e4ae5cc	0.19814223
12	0x3e281dce	0.1641762
13	0x3d8ee134	0.06976548
14	0x3d5fbceb	0.054623526
15	0xbc3a5685	-0.011373167
16	0xbdd3c932	-0.10341109
17	0x3d6c5bbb	0.05770467
18	0xbd97a719	-0.07404918
19	0xbdd94ade	-0.10609983
20	0x3e487094	0.19574195
21	0x3cd2f5bc	0.02575194
22	0x3e0568fc	0.1302833
23	0xbd45e72e	-0.048316173
24	0x3e67ccf6	0.2263678
25	0xbd3f45de	-0.04669749
26	0xbdc40b21	-0.09572435
27	0xbd35b148	-0.04435852
28	0x3d4c1f80	0.04983473
29	0x3ddde256	0.10834186
30	0x3e4a97ab	0.19784419
31	0x3d0a75ab	0.033803623
32	0xbd867cb6	-0.065667555
33	0x3e03b3a2	0.12861493
34	0xbe6d1430	-0.23152232
35	0xbdf32bca	-0.118735865
36	0xbd9e4f6e	-0.07729994
37	0xbe2a49fb	-0.16629784
38	0xbdc402ca	-0.095708445
39	0xbba1d69d	-0.004938914
40	0x3ba5c719	0.0050591347
41	0xbc966573	-0.018358922
42	0x3d29678d	0.04135852
43	0xbe338908	-0.17532742
44	0x3dbf9001	0.093536384
45	0xbe7aedad	-0.24504729
46	0x3d98f250	0.074680924
47	0x3e8039d9	0.25044134
48	0xbdf1dbee	-0.118095264
49	0xbdc83f33	-0.09777679
50	0xbdbbfc92	-0.09179033
51	0xbd06a807	-0.032875087
52	0x3e2e3680	0.17012978
53	0x3d210398	0.039310068
54	0x3ced87ae	0.028995361
55	0x3d9708bd	0.073747136
56	0xbe11e6b8	-0.14248168
57	0xbd3d8fc3	-0.04627968
58	0xbd988abe	-0.07448338
59	0xbdd9eeec	-0.10641274
60	0x3abe0387	0.0014496901
61	0xbd9afbb4	-0.0756754
62	0x3d80a689	0.06281764
63	0xbdda5183	-0.106600784
64	0x3d545b52	0.051844902
65	0x3cf98d25	0.03046281
66	0xbdf0bd36	-0.11754839
67	0x3dc9ddc0	0.098567486
68	0x3be57450	0.007002391
69	0x3de3ab0e	0.111166105
70	0xbcb85476	-0.022501212
71	0x3d81fe59	0.06347341
72	0x3c2f809f	0.010711818
73	0xbe2e64ea	-0.17030683
74	0xbe582e60	-0.2111144
75	0xbe5c9699	-0.21541823
76	0x3e1fc0aa	0.1560084
77	0xbe379e3e	-0.17931458
78	0x3e108cfd	0.14116283
79	0xbcf7926a	-0.030221183
80	0x3dfbe25f	0.12299036
81	0x3e322e0c	0.17400378
82	0xbdebad5c	-0.11507675
83	0xbd82a511	-0.0637914
84	0xbdc23594	-0.094828755
85	0x3e308c31	0.17240979
86	0xbe2ca405	-0.16859443
87	0xba36973b	-0.0006965284
88	0x3d2708cd	0.040779877
89	0x3dd81971	0.105517276
90	0xbe635060	-0.2219863
91	0xbe17474b	-0.1477329
92	0x3e6e9358	0.23298395
93	0x3e445daf	0.19176362
94	0x3d0d43cf	0.034488495
95	0xbdf4569c	-0.11930582
96	0x3d8c15f8	0.06840128
97	0xbc10998e	-0.008825673
98	0x3daf18bf	0.08549642
99	0x3e2ad79b	0.1668381
100	0x3d15e0de	0.036591403
101	0x3c94dce9	0.018171744
102	0xbe1499b3	-0.14511757
103	0xbcb94d04	-0.022619732
104	0xbd385982	-0.045007236
105	0xbe61e541	-0.2206011
106	0xbe3ca54d	-0.18422432
107	0x3e1a129f	0.15046166
108	0x3b8c493e	0.004281192
109	0x3e4ccb48	0.1999942
110	0x3dd18d2d	0.10232005
111	0xbd90b5f2	-0.07065953
112	0xbd9dd94a	-0.0770746
113	0xbe1e44a7	-0.15455876
114	0x3e4eb007	0.20184337
115	0xbdebba14	-0.11510101
116	0xbdf06219	-0.11737461
117	0xbe066f0d	-0.131283
118	0x3e3ad0ee	0.18243763
119	0x3d143d80	0.036191463
120	0xbe2121c0	-0.15735531
121	0xbe3155c5	-0.17317875
122	0xbcac485f	-0.021030603
123	0x3e7d44cf	0.2473328
124	0x3d71f533	0.05907173
125	0x3e00f241	0.12592413
126	0x3e396d1c	0.18108028
127	0x3e151213	0.14557676
128	0xbc850fa5	-0.016242811
129	0x3c1b77cd	0.009489012
130	0xbdc39c56	-0.09551303
131	0x3cc9507a	0.024574507
132	0x3e2000ad	0.15625258
133	0x3c9585e6	0.018252324
134	0xbc1a8cbe	-0.00943297
135	0x3e5f1fc0	0.21789455
136	0x3e841410	0.25796556
137	0xbdd66812	-0.104690686
138	0x3b684172	0.00354394
139	0x3dd8bdc1	0.10583068
140	0xbd4d6f83	-0.050155174
141	0xbde00135	-0.1093773
142	0xbe168332	-0.14698485
143	0x3dc3830a	0.09546478
144	0x3dd2229f	0.1026051
145	0xbdbca7e7	-0.09211712
146	0x3b710a5b	0.0036779854
147	0x3db37c72	0.087639704
148	0xbd57aae6	-0.052653216
149	0x3d8792ad	0.06619773
150	0x3ddccc5f	0.10781168
151	0x3c70ce4b	0.014697622
152	0x3d428e33	0.047498893
153	0x3e3469b1	0.17618443
154	0x3e0f0177	0.13965403
155	0xbe382885	-0.17984207
156	0xbcd34a9d	-0.025792414
157	0x3e18271a	0.14858666
158	0x3d82d2f7	0.063878946
159	0x3e3dd89e	0.18539664
160	0xbde0fc02	-0.10985567
161	0x3e5fa26d	0.21839304
162	0x3e52253c	0.20522016
163	0x3da4c2d6	0.080449745
164	0xbda79a7c	-0.081837624
165	0x3d82a7f8	0.06379694
166	0xbe2ed12f	-0.17071985
167	0xbd3e9ebf	-0.04653811
168	0x3da00a19	0.07814426
169	0x3da13c1c	0.07872793
170	0xbd8abfd3	-0.06774869
171	0xbd2191b2	-0.039445587
172	0x3e4422c7	0.19153892
173	0x3e04ca91	0.12967898
174	0x3d4f535a	0.0506166
175	0x3dd9551c	0.106119365
176	0x3d961aa7	0.07329302
177	0xbe8ed1cd	-0.2789444
178	0x3da78233	0.081791304
179	0xbde25db4	-0.11053029
180	0xbd6f9265	-0.058489222
181	0xbd72a6fc	-0.05924128
182	0x3d24e641	0.04025865
183	0x3dad80c1	0.084718235
184	0x3d90d519	0.07071895
185	0xbd5408a8	-0.051766068
186	0xbe4b6fc4	-0.19866854
187	0x3e155e24	0.14586693
188	0xbe4fc2a6	-0.20289096
189	0x3dc5d211	0.096592076
190	0xbe096ef1	-0.13421227
191	0xbc1e009f	-0.009643703
192	0xbd3e2322	-0.046420224
193	0x3b0c76ad	0.002143304
194	0xbe3ffac1	-0.18747999
195	0xbd117f0c	-0.035521552
196	0x3bc8d012	0.0061283195
197	0x3e43d474	0.19124013
198	0x3d5c721f	0.05381977
199	0xbdb7247c	-0.08942506
200	0xbbb5b90d	-0.0055457414
201	0x3e1c94a0	0.15291071
202	0x3e50e5f1	0.20400216
203	0x3dc618a3	0.09672668
204	0x3db83313	0.08994117
205	0xbcbe4459	-0.02322595
206	0xbd45bdd3	-0.048276734
207	0x3d1725a6	0.03690114
208	0x3d45b7f8	0.04827115
209	0x3c926015	0.017868081
210	0xbde4f884	-0.11180213
211	0xbcea3875	-0.028591374
212	0xbe2932be	-0.16523263
213	0x3cd208e0	0.025638998
214	0xbe30898b	-0.17239968
215	0x3dc787ca	0.097426966
216	0x3de37c9c	0.11107752
217	0x3e2062b8	0.15662658
218	0x3e541a29	0.20713104
219	0xbda32b00	-0.07967186
220	0xbbe233de	-0.0069031557
221	0xbc8bac1c	-0.017049842
222	0x3e576a7d	0.21036716
223	0xbcac924d	-0.021065855
224	0xbcdde2c1	-0.027085664
225	0x3e5fbff9	0.21850576
226	0x3dcb0deb	0.09914764
227	0xbda819a3	-0.08208015
228	0x3be2aef1	0.0069178273
229	0xbe6e83e5	-0.23292501
230	0x3cad64aa	0.021166164
231	0xbe0f3964	-0.13986737
232	0xbd5288c4	-0.05139996
233	0x3dd400ef	0.103517406
234	0x3dd74d9a	0.10512848
235	0x3dc38c3c	0.09548232
236	0x3d016186	0.031587146
237	0xbe00c373	-0.12574558
238	0xbd40559b	-0.04695664
239	0x3e024e6c	0.12725228
240	0xbe567bf9	-0.2094573
241	0xbd1e77a8	-0.03868833
242	0xbdcdc73c	-0.100477666
243	0x3d29e0d1	0.041474167
244	0xbe53dedf	-0.20690487
245	0x3d153b39	0.036433432
246	0xbdae5c92	-0.0851375
247	0x3e18878e	0.1489546
248	0x391a0ff0	0.00014692522
249	0xbd2b3bac	-0.041804954
250	0x3e673747	0.2257968
251	0xbd3e7182	-0.04649497
252	0x3e1388d4	0.14407665
253	0xbe2dd431	-0.16975476
254	0xbe2876d5	-0.16451581
255	0xbe0dcc45	-0.13847454

feature_fusion.0.bias f4 [128]
0	0x3debcc21	0.11513544
1	0xbe320aec	-0.17386979
2	0xbd7ac497	-0.06122264
3	0x3d905be2	0.07048775
4	0x3e34181e	0.17587325
5	0xbe21399e	-0.15744635
6	0xbe31d580	-0.173666
7	0xbcc7c3ba	-0.024385322
8	0x3d71065a	0.058843948
9	0xbd0144c0	-0.031559706
10	0xbd1bc395	-0.03802832
11	0xbd05c598	-0.032659143
12	0x3d65f0a5	0.0561377
13	0xbdb069ef	-0.08613955
14	0xbdd21158	-0.10257214
15	0x3db05adc	0.0861108
16	0x3cb03b7e	0.021512743
17	0x3e5a6d78	0.21330822
18	0x3d67c617	0.056585398
19	0xbe2d6f96	-0.16937098
20	0x3d8cd63c	0.068767995
21	0x3daf0221	0.08545328
22	0x3e2c01c0	0.16797543
23	0xbe2ed780	-0.17074394
24	0xbd390ed7	-0.045180168
25	0x3da94393	0.08264842
26	0xbde1afc1	-0.110198505
27	0x3e22f186	0.15912446
28	0xbd6b2b67	-0.05741444
29	0x3c598672	0.013276683
30	0x3a68ef26	0.00088857336
31	0x3d35fa35	0.04442807
32	0xbe0404f1	-0.1289251
33	0xbe01d05a	-0.12677136
34	0x3e0cf9ec	0.13767213
35	0xbcefefd8	-0.029289171
36	0xbe310bba	-0.1728963
37	0xbdd8e3be	-0.105903134
38	0xbca83f9d	-0.020538146
39	0x3d8ed756	0.06974666
40	0x3e234265	0.15943296
41	0x3d6ab830	0.05730456
42	0x3caada7d	0.020856136
43	0x3e4885f1	0.19582345
44	0x3e134866	0.14383087
45	0xbcf93ea2	-0.030425373
46	0x3c87da03	0.016583448
47	0xbd3fac62	-0.046795256
48	0x3daff110	0.08590901
49	0x3e393883	0.18087964
50	0x3e09b5dc	0.1344828
51	0x3d32b16d	0.043626238
52	0x3e33320e	0.17499563
53	0xbcd7c432	-0.02633867
54	0xbb153b24	-0.0022770846
55	0xbdde4f58	-0.10854977
56	0xbe2bc9a3	-0.16776137
57	0xbe1f84ec	-0.1557805
58	0xbe002f7a	-0.12518111
59	0xbe3081bd	-0.17236991
60	0x3d9229f0	0.07136905
61	0xbc1649ef	-0.009172901
62	0x3e2d072d	0.16897269
63	0x3e17361f	0.1476674
64	0xbd43b659	-0.047781322
65	0x3de8aa0f	0.11360561
66	0xbdaf427a	-0.08557601
67	0x3e0685a1	0.13136913
68	0xbe15fac8	-0.14646447
69	0x3e3ef104	0.18646628
70	0xbd948a25	-0.072529115
71	0xbd317f51	-0.04333431
72	0x3c95b047	0.018272532
73	0xbe0aa0fe	-0.13537976
74	0x3df77966	0.12083702
75	0x3de183c1	0.11011458
76	0xbe5a5403	-0.2132111
77	0x3e048da3	0.12944655
78	0x3e1fe8fb	0.15616219
79	0xbd93a959	-0.07210035
80	0xbde02e56	-0.10946338
81	0x3d9505f7	0.07276528
82	0x3e11b81a	0.14230385
83	0x3e5050e8	0.20343363
84	0x3da92f65	0.08260993
85	0xbe37e8c7	-0.17959891
86	0x3e3ef61f	0.18648575
87	0x3e6a8864	0.22903591
88	0x3d564a2c	0.05231683
89	0x3e0212c1	0.12702467
90	0xbe1a417d	-0.15064044
91	0xbe058139	-0.13037576
92	0x3c934bc6	0.017980468
93	0xbcb1d6df	-0.021708904
94	0xbd77eb0e	-0.0605269
95	0x3cdf9663	0.02729339
96	0x3dff6a52	0.12471451
97	0x3e107509	0.14107145
98	0x3b59b13b	0.003321721
99	0x3e153aeb	0.14573257
100	0xbdba80f0	-0.09106624
101	0x3cb761a2	0.022385422
102	0x3c4413ea	0.0119676385
103	0xbe2afc3d	-0.16697784
104	0x3d842b67	0.06453591
105	0x3e4c8c7c	0.19975466
106	0xbe3431ea	-0.17597166
107	0x3c6dda1d	0.014517334
108	0x3d9d1454	0.07669893
109	0xbd7312af	-0.05934399
110	0x3e5a1560	0.21297216
111	0xbe097765	-0.13424452
112	0x3d44e32b	0.048068207
113	0x3e1fb502	0.15596393
114	0x3dff00c6	0.124513194
115	0x3dbf254a	0.09333284
116	0x3e308628	0.17238677
117	0x3ca74e68	0.02042313
118	0xbe0f77f0	-0.14010596
119	0x3cffd9da	0.03123181
120	0x3c84ced7	0.01621191
121	0xbd9fbe51	-0.07799972
122	0xbe250a67	-0.1611725
123	0xbe265128	-0.16241896
124	0xbe4032a3	-0.18769316
125	0xbdc5e905	-0.096635856
126	0xbdf35a66	-0.118824765
127	0xbdf6ac17	-0.12044542

feature_fusion.3.weight f4 [128, 128]
0	0x3caa8ad6	0.020818155
1	0xbd285f73	-0.041106652
2	0xbd9fc516	-0.07801263
3	0x3d192bd3	0.03739531
4	0xbd3eac97	-0.046551313
5	0x3ccc70cc	0.02495613
6	0xbd308c29	-0.043102417
7	0xba946ee3	-0.0011324551
8	0xbdacf739	-0.084455915
9	0xbd096873	-0.033546876
10	0x3d1d57f2	0.03841395
11	0xbcde8d37	-0.027166946
12	0x3bea0ee0	0.0071428865
13	0xbd2c79ec	-0.04210846
14	0xbd2aa75c	-0.041663513
15	0xbd899871	-0.06718529
16	0xbab7f0d9	-0.001403357
17	0x3da49fe1	0.08038307
18	0x3da6b4d0	0.08139956
19	0xbbb24068	-0.0054398067
20	0xbd090985	-0.033456344
21	0xbc91e265	-0.017808149
22	0xbd68fb9f	-0.05688059
23	0xbd623669	-0.05522767
24	0xbcccaf2a	-0.024985868
25	0x3d8ea49a	0.06964989
26	0x3d8478ae	0.0646833
27	0xbd543013	-0.05180366
28	0x3d8a09a2	0.067401186
29	0xbcef35b2	-0.029200409
30	0xbc9d7005	-0.019218454
31	0xbdaf34c7	-0.08554988
32	0x3d7a02e5	0.061037917
33	0x3d8e3785	0.06944183
34	0xbb94959d	-0.004534437
35	0xbd2b7b91	-0.04186589
36	0xbdbad711	-0.09123052
37	0x3d8a81c7	0.06763034
38	0x3d948b3e	0.07253121
39	0xbd9c718d	-0.076388456
40	0xbd46891a	-0.048470594
41	0x3d3cf7ee	0.04613488
42	0x3d425c31	0.0474512
43	0x3d81c94d	0.06337223
44	0xbda2f47d	-0.07956789
45	0xbdad5fec	-0.08465561
46	0xbd9c4c05	-0.07631687
47	0x3d0cd86e	0.03438609
48	0x3d85e87d	0.06538484
49	0xbdab8a3b	-0.08375975
50	0xbd18029c	-0.037111863
51	0x3d4c0a77	0.049814668
52	0x3c93989d	0.018017108
53	0xbda30e9c	-0.07961771
54	0xba9b236e	-0.001183612
55	0x3d016ba5	0.0315968
56	0x3d25ab96	0.04044684
57	0x3b3413bb	0.002747758
58	0xbd4dfca8	-0.05028978
59	0x3be72fa3	0.0070552393
60	0x3d8de8dd	0.06929181
61	0x3d82c57b	0.06385323
62	0xbd8f8067	-0.07006913
63	0xbd153ab7	-0.036432948
64	0xbd26ecab	-0.040753048
65	0xbccbfd7c	-0.024901144
66	0x3bc0cbe5	0.005883681
67	0xbcda0874	-0.026615359
68	0x3d8b969a	0.06815834
69	0xbd976f9f	-0.07394337
70	0x3d8078a7	0.062730126
71	0x3d9bbf09	0.076047964
72	0x3bf1f1bd	0.007383554
73	0x3c92e349	0.017930644
74	0x3cc40d1d	0.023932034
75	0xbcdd7a2a	-0.027035791
76	0xbd174eea	-0.036940493
77	0x397e385b	0.00024244322
78	0x3d8ff706	0.07029538
79	0x3c91b03c	0.01778423
80	0x3d00bca1	0.03142989
81	0x3c19f86f	0.00939761
82	0xbd9f244f	-0.07770597
83	0x3cfb0418	0.0306416
84	0x3a193cbf	0.00058455387
85	0x3da3fb79	0.08006949
86	0x3dadc1fe	0.08484267
87	0xbce74213	-0.028229749
88	0x3d0195c8	0.031636983
89	0x3d074256	0.033022247
90	0xbce623aa	-0.028093178
91	0x3da8cdfb	0.08242413
92	0x3d982724	0.074293405
93	0x3da521cc	0.08063087
94	0xbd6ae403	-0.057346355
95	0xbd747b4a	-0.05968789
96	0xbdb11b1b	-0.08647748
97	0x3d1abbc0	0.03777671
98	0xbc91ee32	-0.017813776
99	0xbda9e366	-0.08295326
100	0x3bc95190	0.006143756
101	0xbdbe5521	-0.09293581
102	0x3d204d55	0.03913625
103	0x3da89991	0.082324155
104	0xbd8eb7ae	-0.06968628
105	0x3d110e2f	0.035413917
106	0xbdb9fa24	-0.09080914
107	0xbc54cfca	-0.012988994
108	0x3d2dd162	0.04243601
109	0x3c040dd9	0.008059942
110	0x3d2f2b57	0.04276594
111	0xbcf9c7ba	-0.030490745
112	0xbd2e33e0	-0.04252994
113	0xbd72cec0	-0.059279203
114	0xbd9749a5	-0.073870935
115	0xbd381e39	-0.044950698
116	0xbda595c9	-0.0808521
117	0xbc00bd5c	-0.007857647
118	0xbd6801db	-0.056642395
119	0x3d083454	0.03325303
120	0xbd2a9cda	-0.04165349
121	0x3d155665	0.036459345
122	0xbdbf9259	-0.093540855
123	0x3da1ef89	0.07907016
124	0xbd4a67c1	-0.049415354
125	0xbb99bdf1	-0.0046918322
126	0x3d5fd70d	0.054648448
127	0xbd9f9eb6	-0.077939436
128	0xbd3c919d	-0.046037305
129	0xbd046e14	-0.03233154
130	0xbd9760fe	-0.07391547
131	0x3b47380b	0.0030398394
132	0x3be493ec	0.0069756415
133	0xbd90a071	-0.07061852
134	0xbd427592	-0.047475405
135	0x3cad76a1	0.02117473
136	0x3cbd7706	0.023128044
137	0xbd458e76	-0.048231564
138	0x3cd6eb58	0.026235268
139	0x3d64d914	0.055871084
140	0x3e004075	0.12524588
141	0x3a131343	0.0005610475
142	0xbd4d6856	-0.05014833
143	0x3d881ade	0.066457495
144	0x3ddb8698	0.10719031
145	0x3dd24f02	0.10268976
146	0xbb8758f7	-0.0041304785
147	0xbd508b75	-0.050914247
148	0x3c9fcf3e	0.019508
149	0xbc6b56aa	-0.014363924
150	0x3d076c17	0.033062067
151	0xbd798f02	-0.0609274
152	0xbb663ac3	-0.003513024
153	0x3c43f181	0.0119594345
154	0xbc329bb6	-0.010901382
155	0x3c892956	0.016743343
156	0x3d815634	0.0631527
157	0xbd1d631c	-0.038424596
158	0xbd5afacc	-0.053461835
159	0x3d2dfb6f	0.042476114
160	0x3d4704b8	0.048588485
161	0xbc9a64cd	-0.018846894
162	0x3d938b54	0.07204309
163	0x3d9599c2	0.073047176
164	0x3d95811d	0.07300017
165	0x3d928578	0.071543634
166	0xbd3b87fc	-0.04578398
167	0xbd76b562	-0.060231574
168	0x3da00787	0.07813936
169	0x3d977b07	0.073965125
170	0x3aa0cfaf	0.0012268926
171	0xbd338aab	-0.043833416
172	0x3dd3c77e	0.103407845
173	0xbd43c86f	-0.04779857
174	0xbd5c602a	-0.053802647
175	0x3d4541e8	0.048158556
176	0x3dad150a	0.084512785
177	0x3dc27f22	0.09496905
178	0x3d59fb58	0.053218216
179	0x3c5deab6	0.013544729
180	0x3db74557	0.089487724
181	0xbd1a4223	-0.03766073
182	0x3b73a914	0.0037179636
183	0x3d90e892	0.07075609
184	0xbd919507	-0.07108503
185	0xbb28823d	-0.0025712394
186	0x3d7bd452	0.06148178
187	0xbdadb51e	-0.08481811
188	0x3d09ccee	0.0336427
189	0xbd0caf76	-0.03434702
190	0x3d54735d	0.05186783
191	0xbd59b751	-0.05315334
192	0x3dee81be	0.1164584
193	0x3da7f11c	0.08200285
194	0x3cc1a4ba	0.023638118
195	0xbdb005d8	-0.085948646
196	0x3d0d66aa	0.034521736
197	0x3cb62c59	0.022237943
198	0x3dc63ed4	0.09679952
199	0x3dee1d5e	0.11626695
200	0x3ddbe4c7	0.10736995
201	0xbcc1c519	-0.023653554
202	0xbd6c6a57	-0.0577186
203	0xbd8e62fe	-0.06952475
204	0xbdc5c7cc	-0.09657249
205	0x3d29bbd7	0.041438904
206	0xbd44faec	-0.04809086
207	0x3c221e29	0.009894886
208	0xbcf2bbc3	-0.029630547
209	0x3d4f1873	0.050560426
210	0x3d2c0b3b	0.042002898
211	0x3d7ebecd	0.06219368
212	0xbc3723ae	-0.01117794
213	0xbd4731a3	-0.04863132
214	0x3d9bc061	0.07605053
215	0x3dd4a258	0.10382527
216	0x3cece7df	0.028919159
217	0xbd440908	-0.047860175
218	0xbc331efe	-0.010932682
219	0x3c84ca16	0.016209643
220	0x3d9232f1	0.071386226
221	0x3de45b32	0.111502066
222	0x3db7ed2f	0.08980786
223	0x3da303bf	0.07959699
224	0xbd41ae87	-0.047285583
225	0xbba160bb	-0.0049248612
226	0xbd086c6d	-0.033306528
227	0xba9486e8	-0.0011331709
228	0xb9c2e558	-0.00037173438
229	0x3b77274a	0.0037712627
230	0x3cba5d52	0.022749577
231	0xbd63ede0	-0.055646777
232	0xbd2682bb	-0.040652018
233	0xbd8bfe05	-0.0683556
234	0x3dd6d58a	0.10489948
235	0xbcc17e39	-0.023619758
236	0x3d9c5fba	0.07635446
237	0xbc9d4702	-0.019198898
238	0x3d029e3a	0.031889178
239	0x3d990750	0.07472098
240	0x3d5daa44	0.054117456
241	0x3dd55a96	0.104176685
242	0x3daaf4ec	0.083474964
243	0xbd276465	-0.040867228
244	0x3c2031ea	0.009777525
245	0xbd651ba0	-0.05593455
246	0x3d533748	0.051566392
247	0x3d883459	0.066506095
248	0x3dddbbfe	0.10826872
249	0x3c23b5f8	0.009992115
250	0x3d039a62	0.032129653
251	0x3d23a782	0.03995467
252	0x3dbcc88f	0.09217941
253	0x3cdda50f	0.027056245
254	0x3dd66076	0.10467617
255	0xbda38e27	-0.07986098

feature_fusion.3.bias f4 [128]
0	0xbc590070	-0.013244733
1	0xba0093ed	-0.0004904855
2	0xbd4f699b	-0.050637823
3	0x3d5b46e8	0.05353442
4	0xbd07a993	-0.033120703
5	0xbd64716d	-0.055772234
6	0x3d2247da	0.039619304
7	0x3cf5c919	0.030003117
8	0xbcce465a	-0.02518003
9	0x3dbd617c	0.09247109
10	0x3d26215a	0.04055915
11	0x3da4c663	0.08045652
12	0xbd53a0aa	-0.051666893
13	0xbc9d154c	-0.019175194
14	0x3cd12842	0.025531892
15	0xbd674b4f	-0.056468304
16	0xbcf5c012	-0.029998813
17	0xbd79fe23	-0.06103338
18	0x3d84978f	0.0647422
19	0x3d8e2cc8	0.06942135
20	0xbcb9c416	-0.022676509
21	0xbb727a5f	-0.0036999208
22	0xbcda5ee4	-0.026656576
23	0xbb610ac1	-0.0034338685
24	0xbb83fc7d	-0.0040279017
25	0x3d7f1bc3	0.062282335
26	0x3d69e3ec	0.05710213
27	0xbd7a5f9d	-0.06112634
28	0xbd19e770	-0.03757423
29	0xbd9e538d	-0.0773078
30	0xbc99495d	-0.01871174
31	0xbbf106c8	-0.0073555447
32	0x3cb5915e	0.022164043
33	0x3b8c3411	0.0042786677
34	0x3bbce90b	0.0057650856
35	0x3db12999	0.08650512
36	0xbd4317d4	-0.047630146
37	0xbd95c529	-0.07312996
38	0x3c956e56	0.018241089
39	0xbd877eb5	-0.06615964
40	0x3d4eaed8	0.050459713
41	0x3d7c0ddf	0.061536666
42	0x3d31b617	0.043386545
43	0x3d802433	0.062569045
44	0xbc8a1186	-0.016854059
45	0x3cb5ef32	0.022208784
46	0x3dbcffcf	0.09228479
47	0x3c04162c	0.008061927
48	0xbd122ef7	-0.03568932
49	0xbd4658a2	-0.04842437
50	0xbd4256e1	-0.047446135
51	0x3d32dee2	0.04366959
52	0x3cb7500e	0.02237704
53	0x3cf562b3	0.02995429
54	0xbd5fd3c4	-0.054645315
55	0xbd0f54f4	-0.034993127
56	0xbbfd9aef	-0.007739417
57	0x3d2e5e3b	0.042570334
58	0xbd440e70	-0.04786533
59	0x3ced9236	0.029000383
60	0xbd65a9cc	-0.056070134
61	0xbda43591	-0.080180295
62	0x3d72ed37	0.059308257
63	0xbd8af3aa	-0.067847565
64	0x3d8e1284	0.06937125
65	0xbcd58269	-0.026063161
66	0xbdc5b9af	-0.09654557
67	0xbdb4cf3b	-0.088285886
68	0x3dc670d3	0.09689488
69	0x3dbfde0b	0.09368523
70	0x3d7cfc47	0.061764028
71	0xbc64b300	-0.013958693
72	0xbd8d2d5c	-0.06893417
73	0x3d8dad6f	0.069178455
74	0xbc4dc1e0	-0.01255843
75	0xbd9beaea	-0.07613166
76	0x3d3db762	0.046317466
77	0x3d2730d2	0.040818043
78	0xbc95c90c	-0.018284343
79	0x3d09f080	0.033676624
80	0xbbacdad0	-0.005275108
81	0xbd7e8980	-0.06214285
82	0x3da70e07	0.081569724
83	0xbd76f5de	-0.06029307
84	0x3cd406c4	0.025882132
85	0x3d20fba8	0.039302498
86	0xbb56d0f5	-0.0032778357
87	0x3d656ead	0.05601375
88	0xbc456e5b	-0.012050237
89	0x3ce73ad8	0.028226301
90	0x3d4e962f	0.050436195
91	0xbd0088a9	-0.03138033
92	0xbc7f38e6	-0.0155775305
93	0x3d33e89c	0.043923005
94	0x3c284c0d	0.010272038
95	0x3d8ac8ae	0.06776558
96	0xbbabd9d4	-0.005244473
97	0x3db045fb	0.08607098
98	0x3c98f9eb	0.018673858
99	0xbd422086	-0.047394298
100	0x3d90a507	0.070627265
101	0x3c027852	0.007963257
102	0xbd3d8d7c	-0.04627751
103	0x3cf641c9	0.030060666
104	0xbda229c8	-0.079181254
105	0xbd7ad291	-0.061235968
106	0x3bb1fcf3	0.005431765
107	0x3d7d5e58	0.06185755
108	0x3d42f961	0.047601108
109	0x3db3fe40	0.08788729
110	0x3d251261	0.04030073
111	0x3d8967c0	0.06709242
112	0x3c3d1c33	0.011542368
113	0xbd912861	-0.0708778
114	0xbb5766f0	-0.0032867752
115	0x3d45854d	0.04822283
116	0x3d8ccfd4	0.068755776
117	0x3d974b3b	0.07387396
118	0x3d0eb286	0.034838222
119	0x3da9ae0a	0.082851484
120	0xbd67ff61	-0.056640033
121	0x3dab885e	0.08375619
122	0x3cf27982	0.029598955
123	0xbd9276ca	-0.071515635
124	0x3d8d7a45	0.06908087
125	0xbd2f7c39	-0.042843077
126	0xbcbaeeb1	-0.022818895
127	0xbd3e1062	-0.046402343

temporal_layer.weight_ih_l0 f4 [512, 128]
0	0x3d52942e	0.051410846
1	0x3d7b7af3	0.06139655
2	0x3c720630	0.014771983
3	0x3d938506	0.072031066
4	0x3d095a4d	0.033533383
5	0x3dabe326	0.083929345
6	0x3d8f770c	0.07005128
7	0x3da6b244	0.0813947
8	0xbd935e2b	-0.071956955
9	0xba9f1896	-0.0012138064
10	0x3cc9a805	0.02461625
11	0x3cc8e453	0.024522936
12	0x3d920913	0.07130637
13	0xbd549a97	-0.05190524
14	0xbd432f57	-0.04765257
15	0x3d97412f	0.0738548
16	0xbd1e2d33	-0.038617324
17	0xbce223c9	-0.027604954
18	0x3cc2bb53	0.023770964
19	0xbda4bac0	-0.08043432
20	0x3db275ff	0.08713912
21	0x3cfe9f62	0.031081859
22	0xbd923a1f	-0.07139992
23	0x3da88ca9	0.08229954
24	0x3d41ff55	0.047362644
25	0x3ac3114e	0.0014882477
26	0xbcfba27c	-0.030717127
27	0xbccfa656	-0.02534787
28	0x3d90cfed	0.07070909
29	0x3c82d275	0.015969494
30	0x3d9aa3ea	0.075507954
31	0x3d9ac100	0.07556343
32	0x3cf38ef4	0.029731251
33	0xbd4b6e6a	-0.049665846
34	0xbbab4236	-0.005226399
35	0x3db4e607	0.08832937
36	0xbc4fa40f	-0.012673392
37	0x3b2562aa	0.002523581
38	0xbda62407	-0.081123404
39	0xbd89c9d4	-0.06727949
40	0xbd99eea8	-0.07516223
41	0x3d85812f	0.065187804
42	0xbd560795	-0.052253325
43	0xbd8a80a4	-0.067628175
44	0x3cb823bb	0.022477975
45	0x3d6e4180	0.058167934
46	0x3d4fd652	0.0507415
47	0x3ce49f41	0.02790797
48	0xbd189dba	-0.037259795
49	0x3ddd24c2	0.107980266
50	0x3dbdbce0	0.09264541
51	0xbd56243a	-0.052280642
52	0xbd6afb5e	-0.05736863
53	0x3dc17b75	0.09447376
54	0x3dac894a	0.08424623
55	0x3db0430f	0.086065404
56	0xbd27c0a8	-0.040955216
57	0xbda3f0f1	-0.0800494
58	0x3af46c36	0.0018647972
59	0xbc601ad8	-0.013678275
60	0x3d85ed22	0.0653937
61	0x3ca28d4b	0.019842764
62	0x3b7ff5d0	0.0039056428
63	0x3d602dd5	0.05473121
64	0x3d88cf94	0.066802174
65	0x3d867545	0.06565336
66	0xbcd7c414	-0.026338615
67	0xbd71c486	-0.05902531
68	0x3d48aa77	0.048990693
69	0xb90c263d	-0.00013365685
70	0xbd5a2834	-0.053260997
71	0x3d422108	0.047394782
72	0xbc8a7ca1	-0.01690513
73	0xbd0b0c23	-0.03394712
74	0xbbd4af5e	-0.006490632
75	0xbd9f743e	-0.07785843
76	0xbda5e5c6	-0.081004664
77	0x3da45009	0.08023078
78	0x3badf230	0.005308412
79	0x3d8bb9bf	0.06822538
80	0x3d4e7b66	0.05041065
81	0xbc713ae8	-0.014723517
82	0x3dbf738a	0.09348209
83	0x3d37c7ea	0.044868387
84	0x3d43755c	0.047719344
85	0xbd448298	-0.047976106
86	0x3c39bc12	0.011336343
87	0x3d2a9839	0.041649077
88	0x3d7b9542	0.06142164
89	0xbb866520	-0.0041014105
90	0x3d887ded	0.066646434
91	0x3dacd549	0.084391184
92	0x3cb489e9	0.022038417
93	0x3cfe8a27	0.031071736
94	0x3d1da899	0.038490865
95	0xbc157137	-0.009121231
96	0xbbcfd52a	-0.00634255
97	0xbd9f3393	-0.07773509
98	0x3d026143	0.031831037
99	0xbd76c260	-0.060243964
100	0x3db99560	0.09061694
101	0xbcf656dc	-0.030070715
102	0xbad3960e	-0.0016142742
103	0x3dc04fcf	0.09390222
104	0x3d8486e8	0.06471044
105	0x3dc84144	0.097780734
106	0xbcac6702	-0.021045212
107	0xbd6d62de	-0.057955615
108	0xbd4779f9	-0.048700307
109	0xbcde5691	-0.027140887
110	0x3c17296c	0.009226184
111	0x3da5967b	0.080853425
112	0xbcaddd54	-0.021223702
113	0xbd1b3f67	-0.037902262
114	0x3c26ca25	0.010180031
115	0xbd2e6ed7	-0.042586174
116	0xbcb7941d	-0.022409493
117	0xbd5a0051	-0.053222958
118	0xbc113aff	-0.008864163
119	0x3d77e0ab	0.060516994
120	0x3bfd9e63	0.0077398284
121	0xbc8d21ea	-0.017228086
122	0xbd2c04cc	-0.041996762
123	0xbb063618	-0.002047902
124	0x3d670eb5	0.05641051
125	0x3d3d1b65	0.046168704
126	0x3db47f97	0.08813398
127	0xbd605ceb	-0.054776113
128	0x3db0589f	0.08610653
129	0x3dd58a1f	0.10426735
130	0x3ca90eb5	0.020636896
131	0x3db9efe5	0.090789594
132	0x3da64233	0.08118095
133	0xbd7e4368	-0.062076002
134	0x3cdf55f4	0.027262665
135	0x3ab981be	0.0014153046
136	0xbd4bf26d	-0.049791742
137	0x3d29b870	0.04143566
138	0x3cceac34	0.025228597
139	0x3d4da580	0.05020666
140	0x3da15c10	0.07878888
141	0xbd7baf96	-0.06144675
142	0x3ca80bb4	0.020513393
143	0xbd88ce70	-0.0668
144	0x3d28794b	0.0411313
145	0x3d260283	0.04052974
146	0xbd4cea45	-0.050028104
147	0xbcc3e618	-0.023913428
148	0xbced80bf	-0.028992055
149	0xbd4c47b1	-0.049873058
150	0x3ddc4c37	0.10756724
151	0xbce3defb	-0.027816286
152	0x3dc44061	0.09582592
153	0x3c89aa46	0.016804826
154	0x3ce17435	0.027521232
155	0x3d0b72c1	0.034044985
156	0xbdb55268	-0.08853608
157	0x3d65f6ef	0.056143697
158	0xbd3d102b	-0.046157997
159	0xbd4f6892	-0.050636835
160	0x3daabed0	0.08337176
161	0x3db40644	0.087902576
162	0xbd334b93	-0.043773245
163	0x3bbe2321	0.0058025275
164	0xbd8294f6	-0.06376068
165	0xbd075dcd	-0.03304844
166	0x3d3d7bd7	0.04626068
167	0xbd89a7a4	-0.06721428
168	0x3cf4029f	0.029786406
169	0xbd5139c1	-0.05108047
170	0x3dbb0275	0.09131328
171	0xbd3f8729	-0.04675976
172	0xbca64b5e	-0.02029961
173	0xbd30b736	-0.043143474
174	0x3c218893	0.009859222
175	0x3dbc7932	0.09202804
176	0x3c5f01e9	0.013611295
177	0xbb8a5d81	-0.0042225723
178	0x3d2955de	0.041341655
179	0x3d9a05a3	0.07520606
180	0x3d869974	0.065722376
181	0xbd34ed36	-0.044171534
182	0x3c58c911	0.013231532
183	0x3d7d151d	0.061787713
184	0x3ce4388e	0.027858999
185	0x3d19f6f6	0.037589036
186	0x3d91b15c	0.07113907
187	0xbb87dcfc	-0.0041462164
188	0x3dd10c9e	0.10207485
189	0xbd38190a	-0.044945754
190	0x3c12ea4f	0.008966996
191	0x3ca3a6c1	0.019976975
192	0xbd842174	-0.06451693
193	0xbcd5aa94	-0.026082315
194	0xbd2c7585	-0.042104263
195	0x3d8b44c7	0.068002276
196	0xbd0122d2	-0.031527348
197	0x3dcd7d9a	0.10033722
198	0x3da9c31e	0.08289169
199	0xbd45d556	-0.048299156
200	0xbd46e67e	-0.04855966
201	0xbd45aa44	-0.04825808
202	0xbd0cdf69	-0.034392748
203	0x3d588d92	0.052869387
204	0x3dd3d4ca	0.10343321
205	0x3bf680be	0.0075226715
206	0xbd0b61a0	-0.03402865
207	0x3cba8948	0.022770539
208	0x3d73bde3	0.059507262
209	0x3ce12e60	0.027487934
210	0xbcc5cb12	-0.024144683
211	0x3c8ce9ed	0.017201388
212	0x3d5941de	0.05304133
213	0xbd8ca50d	-0.068674184
214	0x3d7e9b51	0.06215984
215	0x3d9d41cc	0.076785654
216	0xbd05a467	-0.03262749
217	0x3dceb096	0.10092275
218	0xbd608c47	-0.05482128
219	0x3db1a61e	0.086742625
220	0x3d3a34d0	0.045460522
221	0x3dd109ef	0.10206973
222	0x3d72441f	0.059146997
223	0xbd0f70a3	-0.035019528
224	0x3cb7e5e8	0.022448495
225	0x3d8cf9d2	0.06883587
226	0x3dacdcef	0.08440577
227	0xbd7831c2	-0.060594328
228	0x3da02bcd	0.07820854
229	0xbce302b1	-0.027711244
230	0x3dcd7f3d	0.100340344
231	0x3da97646	0.08274512
232	0xbc234a88	-0.0099665
233	0xbc5ae40a	-0.013360033
234	0xbd8ae971	-0.06782807
235	0x3d271111	0.04078776
236	0x3bdff1d3	0.0068342476
237	0xbcdacdd6	-0.026709478
238	0xbd4763c8	-0.048679143
239	0xbd01ccc8	-0.031689435
240	0x3da3fe36	0.08007471
241	0x3a63e572	0.0008693553
242	0x3d86277b	0.06550499
243	0x3b81ba51	0.003958978
244	0x3dc2dcd3	0.09514775
245	0x3d35bc90	0.04436928
246	0x3db10a5b	0.08644553
247	0x3ca98c6f	0.020696847
248	0xbcbbae0e	-0.022910144
249	0xbd080090	-0.03320366
250	0xbd28d045	-0.041214246
251	0x3d8c18e4	0.06840685
252	0x3c98d893	0.018657958
253	0xbd6ffb22	-0.05858911
254	0xbd3a589f	-0.045494672
255	0x3c93afa2	0.018028084

temporal_layer.weight_hh_l0 f4 [512, 128]
0	0xbd3c94a9	-0.04604021
1	0x3d3b7ce1	0.04577339
2	0x3d11b1c5	0.035569925
3	0x3c852ff5	0.01625822
4	0xbd5e5f50	-0.054290116
5	0xbc4a4ab1	-0.012346909
6	0x3d51f3c4	0.051257864
7	0xbca97dfc	-0.020689957
8	0x3d26135c	0.040545806
9	0x3d64fcb1	0.055905048
10	0x3c7df7db	0.015500988
11	0xbc1ec5f8	-0.009690754
12	0xbd4e1ed2	-0.05032236
13	0xbd49378c	-0.04912524
14	0xbd37c1ba	-0.044862486
15	0x3d1a53a0	0.037677407
16	0xbbad5d18	-0.0052906387
17	0x3d45272c	0.04813306
18	0x3d410927	0.04712787
19	0xbd87ec70	-0.06636894
20	0x3d98a6fa	0.07453723
21	0x3d14150c	0.036152884
22	0x3dc44e39	0.09585232
23	0x3c9087c1	0.017642858
24	0xbd8844d6	-0.066537544
25	0xbd3f9b3f	-0.046778914
26	0x3cb16408	0.021654144
27	0xbc9e82a3	-0.019349402
28	0x3d9d27ef	0.07673632
29	0xbd91bbbd	-0.07115886
30	0x3d1e4417	0.038639154
31	0xbd0f6520	-0.03500855
32	0x3c9eadb1	0.019369932
33	0x3c482fd6	0.012218436
34	0x3dc319c4	0.09526399
35	0x3d3b5a61	0.04574049
36	0x3d5c5813	0.05379493
37	0xbda3fbd9	-0.080070205
38	0xbca88f8c	-0.020576261
39	0xbd1f39d8	-0.038873523
40	0x3ca0e767	0.019641591
41	0x3d7b57b3	0.061362933
42	0xbd154734	-0.036444858
43	0xbd10693c	-0.03525661
44	0x3d0681f8	0.03283879
45	0x3d7ccf20	0.061720967
46	0xbdc53ff9	-0.096313424
47	0x3dc9e0e5	0.09857348
48	0x3d3286ef	0.043585714
49	0xbd81acf8	-0.06331819
50	0xbd56356d	-0.052297045
51	0x3ba06e7c	0.0048959833
52	0xbda3463d	-0.07972381
53	0xbd0244f0	-0.031804025
54	0xbd4361d8	-0.047700733
55	0x3d87feaa	0.0664037
56	0x3d62e285	0.055391807
57	0x3c389237	0.011265329
58	0x3c2af8ea	0.010435322
59	0x3cc2f867	0.023800088
60	0xbd220265	-0.039553065
61	0x3ad727a2	0.001641501
62	0xbdb9b167	-0.0906704
63	0x3d97fb36	0.074209616
64	0x3d7ee504	0.062230125
65	0xbcec0b3a	-0.028813947
66	0x3be6d8ff	0.007044911
67	0xbc832ca8	-0.016012505
68	0xbd9934fa	-0.074808076
69	0xbd9be4f8	-0.07612032
70	0x3cec09ee	0.028813329
71	0x3c102eb1	0.008800195
72	0x3d8a3ecb	0.06750258
73	0x3bf625ab	0.0075118146
74	0x3d13d46a	0.036091246
75	0x3d901df4	0.07036963
76	0xbd92d207	-0.07168966
77	0xbd39cef1	-0.04536337
78	0x3c11884f	0.008882596
79	0xbce2a77d	-0.027667755
80	0xbd73640e	-0.05942159
81	0x3cd68cf7	0.026190264
82	0x3cbc87fb	0.02301406
83	0x3d34144c	0.04396467
84	0x3d15e41e	0.036594503
85	0x3d8925a2	0.06696631
86	0xbd9a71c2	-0.07541229
87	0xbdb996dd	-0.09061978
88	0x3d9bb34c	0.076025575
89	0x3ccaec01	0.024770739
90	0x3c8238b5	0.01589618
91	0xbcc9118c	-0.0245445
92	0x3db6d0ce	0.08926545
93	0xbd18ed24	-0.03733553
94	0x3d0b0463	0.03393973
95	0x3cff1a98	0.03114061
96	0x3d8d480a	0.06898506
97	0xbd6edb7c	-0.058314785
98	0xbd3399de	-0.04384791
99	0xbbb79b7e	-0.005603253
100	0x3d2c0d82	0.04200507
101	0x3cd4fda7	0.025999857
102	0xbb778fbb	-0.003777488
103	0x3d4d8533	0.050175857
104	0xbcf47cad	-0.029844606
105	0xbd993a12	-0.07481779
106	0xbd781212	-0.06056411
107	0x3da026ea	0.07819922
108	0xbd2401e6	-0.040040873
109	0x3d40cd38	0.04707071
110	0xbd8872b3	-0.06662502
111	0xbd83acf7	-0.06429475
112	0x3d390033	0.045166206
113	0x3d200db0	0.039075553
114	0xbdabffa4	-0.08398369
115	0xbc08ef1f	-0.008357792
116	0x3d107427	0.03526702
117	0x3d8d7b0f	0.06908237
118	0xbd81805a	-0.06323309
119	0x3d9aaddd	0.07552693
120	0x3d89db49	0.067312784
121	0x3dbdfd9e	0.09276889
122	0xbc6e8786	-0.0145586785
123	0xbc6d9af4	-0.014502276
124	0xbc833e13	-0.01602081
125	0xbbab59ec	-0.0052292254
126	0xbc0c1b63	-0.008551451
127	0xbd2b6304	-0.041842476
128	0xbcecb4cc	-0.028894804
129	0xbd0ef43d	-0.034900893
130	0x3c9c4b19	0.019078778
131	0x3d7bc69e	0.061468713
132	0x3dc9ad2f	0.09847485
133	0xbd3a702a	-0.045517124
134	0x3cab8926	0.02093942
135	0x3d6b1473	0.05739255
136	0x3d5983b5	0.05310412
137	0x3d7af941	0.061272863
138	0xbdd29193	-0.10281672
139	0xbdd53b51	-0.10411704
140	0x3ce3d352	0.027810726
141	0x3cc4fb4c	0.024045609
142	0xbd614f38	-0.05500719
143	0x3cd206f1	0.025638076
144	0x3d1e0dbb	0.038587313
145	0xbc4756a4	-0.012166653
146	0x3c5492da	0.012974465
147	0x3d1973e3	0.037464034
148	0x3d88b99f	0.066760294
149	0xbbb49182	-0.00551051
150	0xbd08f6ac	-0.03343837
151	0xbd801b5c	-0.062552184
152	0xbce57836	-0.028011423
153	0xbdbc3dfc	-0.0919151
154	0x3cbbdd2f	0.022932617
155	0x3d5a4e36	0.053297244
156	0x3d710be7	0.05884924
157	0x3d0a4fef	0.033767637
158	0x3d3e287e	0.046425335
159	0xbd28a38f	-0.041171607
160	0xbd1e20ef	-0.038605627
161	0x3d4ad92f	0.04952353
162	0x3d1ba439	0.03799841
163	0xbd8b3b8c	-0.06798467
164	0xbca63d59	-0.020292925
165	0xbcad1b99	-0.021131324
166	0x3cd9f82f	0.026607601
167	0x3b1925f6	0.0023368574
168	0x3d209f13	0.039214205
169	0x3c8986f3	0.016787982
170	0x3d91dcfd	0.07122228
171	0x3d92a1b7	0.07159751
172	0xbc8d2b49	-0.017232554
173	0xbd949e10	-0.072567105
174	0x3d780133	0.06054802
175	0x3d719725	0.058982033
176	0xbcf26eef	-0.029593913
177	0xbc84123e	-0.01612198
178	0xbd124d71	-0.035718385
179	0xba9625ff	-0.0011455416
180	0x3d90c39a	0.07068558
181	0x3d2dbb62	0.04241503
182	0xbdabffed	-0.08398423
183	0xbce85075	-0.028358677
184	0x3b396b17	0.002829259
185	0xbd8e8d18	-0.06960505
186	0xbc604f32	-0.013690757
187	0xbcbb3429	-0.02285202
188	0x3ce2b91f	0.027676163
189	0x3d53987c	0.051659092
190	0x3d0fa339	0.03506777
191	0xbd6741bc	-0.056459174
192	0x3d1e984e	0.038719468
193	0x3cb34374	0.02188275
194	0x3cafd729	0.021464901
195	0x3da5ccb2	0.08095683
196	0xbd8d7889	-0.06907756
197	0xbb71a4ae	-0.0036871838
198	0x3d8cc0e7	0.06872731
199	0xbd86fca6	-0.065911576
200	0x3d6dcf6f	0.058059152
201	0x3c36067a	0.011109943
202	0xbd8e38b8	-0.06944412
203	0x3c78c533	0.015183735
204	0xbc9fa334	-0.019487001
205	0xbcea9786	-0.028636705
206	0xbd625cb8	-0.055264205
207	0x3d851576	0.06498234
208	0xbd5e5229	-0.054277573
209	0x3cea2ee2	0.028586809
210	0xbd6ba071	-0.057526056
211	0xbcf16569	-0.029467301
212	0xbd4000c0	-0.046875715
213	0xbd5d7420	-0.054065824
214	0xbd204b1a	-0.039134122
215	0xbbd089ab	-0.0063640676
216	0xbd7f5e3f	-0.06234574
217	0x3da98a45	0.08278326
218	0xbd6ea519	-0.05826292
219	0x3d15ec73	0.03660245
220	0x3cfc53da	0.030801702
221	0x3b77d5ac	0.0037816567
222	0x3c13ec03	0.009028438
223	0x3c446cf0	0.011988863
224	0xbd4204e1	-0.047367934
225	0x3be35967	0.006938148
226	0x3da071bf	0.07834195
227	0x3d812cc8	0.063073695
228	0x3d213530	0.039357364
229	0xbcb994b0	-0.022653908
230	0x3da962cb	0.082707964
231	0x3d138ebb	0.03602479
232	0xbd0de6c7	-0.034643915
233	0xbc694275	-0.014237036
234	0x3d7d4b7c	0.061839566
235	0x3d2a04cd	0.041508485
236	0x3d01f1da	0.03172479
237	0xbd5afdc8	-0.05346468
238	0xbd061e2b	-0.032743614
239	0x3c7f3339	0.015576177
240	0xbc385e88	-0.011253007
241	0xbccb1f39	-0.024795162
242	0x3bcb25a1	0.006199554
243	0x3c3e883a	0.011629159
244	0x3d8062b2	0.06268825
245	0xbdb49693	-0.08817782
246	0xbc266b63	-0.010157439
247	0xbc8c58d0	-0.017132193
248	0xbd7c3603	-0.061574947
249	0x3ba5571c	0.0050457846
250	0xbd9e012e	-0.07715069
251	0x3c99cb1a	0.018773604
252	0x3a9b31fe	0.001184046
253	0xbdc9a10b	-0.0984517
254	0xbda1e285	-0.07904533
255	0x3d1ce2e5	0.03830232

temporal_layer.bias_ih_l0 f4 [512]
0	0x3bb0a6a0	0.005390957
1	0x3d4f1b61	0.05056322
2	0x3da8444f	0.08216154
3	0xbd885959	-0.06657667
4	0x3cabbffc	0.020965569
5	0x3c408eb6	0.011752775
6	0x3d4e3d16	0.050351225
7	0xbd528fb2	-0.05140657
8	0xbd9ab1b9	-0.07553429
9	0x3d0f54cf	0.03499299
10	0x3da3c4a9	0.07996494
11	0xbd72f2a7	-0.059313443
12	0x3daa5d16	0.08318536
13	0x3cbdc9e7	0.023167564
14	0x3d6d02c9	0.057863984
15	0xbd29509a	-0.041336633
16	0x3d09a07c	0.033600315
17	0x3da2e832	0.07954444
18	0x3d32797e	0.043572895
19	0xbd2308d5	-0.039803345
20	0x3daa7172	0.08322419
21	0xbd3dc129	-0.04632679
22	0x3cdc2488	0.026872888
23	0x3cf2d32b	0.029641708
24	0x3d669a36	0.05629941
25	0x3cf59340	0.02997744
26	0xbd9cab2f	-0.07649838
27	0x3d205a8d	0.039148856
28	0xbca6bac9	-0.020352738
29	0x3d1439f2	0.036188073
30	0x3d434610	0.04767424
31	0x3d94d0e1	0.07266403
32	0x3cb58f0a	0.022162933
33	0xbc241ef9	-0.01001715
34	0x3db3002b	0.087402664
35	0x3d089e83	0.033354294
36	0x3c451cc0	0.01203078
37	0x3c41ab9a	0.011820698
38	0x3d4a850f	0.0494433
39	0x3a690abd	0.0008889845
40	0x3beeaaca	0.0072835432
41	0x3d9c9c94	0.076470524
42	0x3cd14784	0.025546797
43	0xbce3e10a	-0.027817268
44	0xbc69f3b2	-0.014279293
45	0xbd004cb5	-0.031323154
46	0x3c52698b	0.012842546
47	0x3d8d1542	0.0688882
48	0xbceb03bd	-0.028688306
49	0xbd99c3e3	-0.075080656
50	0xbb52d33f	-0.003216937
51	0x3d39dc02	0.04537583
52	0x3da84df3	0.08217993
53	0x3dac9522	0.08426882
54	0x3c4d1bde	0.012518851
55	0x3d89deb3	0.0673193
56	0xbc1fd3c8	-0.009755082
57	0xbd682dc5	-0.056684274
58	0x3d52e571	0.051488344
59	0xbd4c8871	-0.04993481
60	0x3c44a549	0.012002298
61	0x3d5425f9	0.051794026
62	0xbc1e23f2	-0.009652125
63	0x3cc64eb7	0.024207456
64	0x3da1bcc1	0.0789733
65	0xbd8ab51a	-0.06772824
66	0x3d255c51	0.040371243
67	0x3d4974e8	0.049183756
68	0xbd4df0ee	-0.050278597
69	0x3d230f6e	0.039809637
70	0xbd8b2a1a	-0.067951396
71	0x3d30a977	0.043130364
72	0x3d826d36	0.063684866
73	0x3b391f18	0.0028247293
74	0x3dc32b7c	0.09529778
75	0xbd6bdc88	-0.057583362
76	0x3c8fed18	0.01756911
77	0x3baaaa90	0.005208321
78	0x3d48a17a	0.04898212
79	0x3d442127	0.04788318
80	0x3d1a8ca5	0.037731785
81	0x3b2f5120	0.0026751235
82	0x3d2129f0	0.039346635
83	0x3d92d44b	0.07169398
84	0x3d9756bd	0.07389591
85	0x3d7910fa	0.060807206
86	0x3d2c2354	0.04202588
87	0x3d988b8b	0.07448491
88	0x3d36b963	0.044610392
89	0xbd605d88	-0.0547767
90	0x3d9eb493	0.077492855
91	0x3bda01bc	0.006653039
92	0x3a019467	0.0004943073
93	0xbd7f899f	-0.062387105
94	0x3c7d5ebc	0.015464481
95	0xbd92a80d	-0.071609594
96	0xbd170234	-0.036867335
97	0xbd0f9c5c	-0.035061225
98	0x3d6b9491	0.05751473
99	0x3d84b470	0.06479728
100	0x3d8b76e4	0.06809786
101	0x3cfc6e23	0.030814236
102	0xbdaa88a4	-0.083268434
103	0xbcd20e1d	-0.025641495
104	0xbd865da3	-0.065608285
105	0xbbeb693c	-0.007184176
106	0xbb41d549	-0.002957659
107	0xbc8e9361	-0.01740426
108	0x3d0f0dea	0.03492538
109	0xbb7cd7f1	-0.003858086
110	0x3a2a59e6	0.0006498381
111	0xbd82b9e8	-0.06383115
112	0xbc5a979b	-0.01334181
113	0xbd93a17a	-0.072085336
114	0x3d3c2fdf	0.04594409
115	0x3d0c9500	0.034321785
116	0x3d2bf645	0.041982908
117	0x3da0765e	0.07835077
118	0x3d70b087	0.0587621
119	0xbdb2581e	-0.08708213
120	0x3d13d8c4	0.036095396
121	0x3d59f027	0.053207543
122	0x3c192ae4	0.009348605
123	0x3cb895bc	0.022532336
124	0x3d9d90b2	0.07693614
125	0xbccefe4c	-0.025267743
126	0x3d4430de	0.047898166
127	0x3daae975	0.0834531
128	0x3d961c56	0.073296234
129	0xbd8015dd	-0.0625417
130	0x3bc00f5a	0.005861205
131	0xbd8e54db	-0.06949779
132	0xbd01c549	-0.031682286
133	0x3daa49d5	0.083148636
134	0x3c9231cc	0.01784601
135	0xbd3b578d	-0.04573779
136	0x3cb88015	0.022522012
137	0xbd7374f8	-0.059437722
138	0x3c16b5d4	0.009198625
139	0x3d4094c1	0.047016863
140	0x3d22eea8	0.03977838
141	0xbda366df	-0.079786055
142	0x3d7223c3	0.059116136
143	0xbd2cbe67	-0.04217377
144	0x3dbd4f64	0.09243658
145	0xbd82f165	-0.063936986
146	0x3db329aa	0.08748181
147	0x3be2217b	0.006900964
148	0xbd4a970f	-0.049460467
149	0xbcc9a8e6	-0.02461667
150	0x3c37aafc	0.011210199
151	0x3dbd13f8	0.09232324
152	0x3d8cdea5	0.068784036
153	0xbd1269b8	-0.035745353
154	0x3b9e4410	0.004829891
155	0x3d487a8a	0.048944987
156	0x3d0ccded	0.034376074
157	0x3d916be8	0.071006596
158	0xbd9acb6e	-0.075583324
159	0xbb17917e	-0.0023127492
160	0xbba1ba1a	-0.004935515
161	0x3c2fe694	0.010736126
162	0xbc81cf7e	-0.01584601
163	0xbd6c7b91	-0.05773503
164	0x3d0a01b4	0.03369303
165	0xbd84ebfe	-0.064903244
166	0x3cc411c3	0.02393425
167	0xbd0a4822	-0.033760197
168	0x3db14ff6	0.086578295
169	0xbcb168c5	-0.021656403
170	0xbc323226	-0.010876214
171	0x3c3581dc	0.011078324
172	0xbd6b8ab2	-0.057505317
173	0x3d9a00f8	0.07519716
174	0x3d10f22e	0.03538721
175	0xbcc82d1a	-0.024435569
176	0xbd3a728d	-0.0455194
177	0xbdb4b60f	-0.088237874
178	0xbd2495c7	-0.0401819
179	0xbd3575f4	-0.044301942
180	0x3d8cb3b8	0.06870216
181	0xbd83a5cc	-0.064281076
182	0x3c3fc112	0.011703746
183	0xbd8b13fe	-0.067909226
184	0x3d72ac6f	0.059246477
185	0xbd0b0ba2	-0.03394664
186	0x3d0e9142	0.034806497
187	0xbc20098d	-0.009767902
188	0x3d9ea1b1	0.07745684
189	0x3d7001fb	0.05859564
190	0x3da64934	0.08119431
191	0xbd307cc1	-0.043087725
192	0xbd901255	-0.070347466
193	0xbc94f90d	-0.018185163
194	0xbd92ac0f	-0.07161724
195	0xbda4dbc0	-0.080497265
196	0x3c8e5e97	0.017379088
197	0xbd81c8c3	-0.063371204
198	0x3d589f0e	0.05288606
199	0xbd9b9e43	-0.075985454
200	0x3ca6e1b1	0.02037129
201	0x3c98456a	0.018587787
202	0xbd9ef142	-0.0776086
203	0xbda22a07	-0.07918172
204	0xbd9d5f75	-0.076842226
205	0x3d12719d	0.03575288
206	0x3d02f559	0.031972263
207	0x3d7077aa	0.05870787
208	0x3daeca94	0.085347325
209	0x3ccbf2d2	0.02489606
210	0xbcb35235	-0.021889785
211	0xbb4b93d2	-0.003106345
212	0x3cf41f3a	0.029800046
213	0xbd180115	-0.037110407
214	0x3d112558	0.035436004
215	0xbd5c949b	-0.05385266
216	0x3d18ff24	0.037352696
217	0x3c598049	0.0132752145
218	0x3d7cb617	0.061697092
219	0xbc263273	-0.010143864
220	0x3d0bec1b	0.034160715
221	0x3d2fa534	0.04288216
222	0xbd7571d5	-0.05992301
223	0x3cdc732b	0.026910385
224	0xbc98a45d	-0.018633062
225	0xbd9495ed	-0.072551586
226	0x3ce105bb	0.027468553
227	0x3dadb4f2	0.08481778
228	0xbd1f255a	-0.03885398
229	0xbda6ba80	-0.08141041
230	0x3d0bc4da	0.03412328
231	0xbd95d4f6	-0.0731601
232	0xbd59f5c6	-0.053212903
233	0xbb9d0d4e	-0.004792846
234	0xbd6b7625	-0.05748572
235	0xbd338126	-0.043824337
236	0xbd9460f5	-0.072450556
237	0x3cf2ffba	0.029662956
238	0xbcd6a97c	-0.026203863
239	0x3d832156	0.06402843
240	0x3d4f4db6	0.05061122
241	0x3dc2011b	0.09472867
242	0x3db46179	0.08807654
243	0xbca37a2b	-0.019955715
244	0x3c1598ab	0.009130637
245	0x3dc90861	0.09816051
246	0xbbbd2f70	-0.0057734773
247	0xbb9bf5a1	-0.004759506
248	0x3baff978	0.005370315
249	0x3d1a475e	0.037665717
250	0xbd817cb0	-0.063226104
251	0x3c122a97	0.008921287
252	0x3dc180fc	0.0944843
253	0x3dc00cd4	0.09377447
254	0xbd8a354a	-0.06748445
255	0x3d68814a	0.056763925
